QC-CNN-main/inception--default.qubit.torch--best-best_model.pth (torch, 16964 bytes, 9 tensors)

incep.branchClassic_1.weight f4 [4, 1, 1, 1]
-0.082168795 0.23787779 -0.5381878 -0.9158574
00000000: 1d48 a8bd 3c96 733e adc6 09bf a175 6abf

incep.branchClassic_1.bias f4 [4]
-0.38803783 0.20859005 -0.032114808 0.3759612
00000000: e5ac c6be a198 553e d18a 03bd fd7d c03e

incep.branchClassic_2.weight f4 [8, 4, 4, 4]
0.11705097 0.15197317 0.07983563 0.08903712 -0.9990137 -0.9455108 -0.9559673 -0.9116738
-0.767275 -0.7470143 -0.9397234 -0.93742216 -0.85145855 -0.79263645 -0.90689385 -0.8015198
-1.5918384 -0.56744945 -0.4417941 -0.6551581 0.27350035 0.3522193 -0.5883521 -0.3808776
0.35006675 0.35406247 -0.62853175 -0.62018436 -0.6073885 -1.469937 -1.5465775 -0.42354116
1.5082414 0.44944727 0.4974835 0.33231714 -0.51186264 -0.50568205 0.2620387 0.42254433
-0.57706714 0.5325321 0.5183894 0.4813455 0.5047356 0.5639276 0.64817923 -0.5335465
0.95523703 0.955548 -0.2319161 0.55154014 -0.9492172 0.1371923 -0.25949395 -0.44260132
-1.0535331 -0.02111398 -0.21689901 -0.37991163 0.9390947 0.10627879 -0.10225858 -0.10562037
0.12712431 0.16532035 0.17988415 0.16690512 0.080973856 -0.051002115 0.06612328 -1.0130086
-0.048288334 0.16509604 -0.8576461 -1.047024 0.06686868 -0.9766561 -0.9038973 -0.8870916
-0.24917106 -1.3728728 -0.26272938 -0.25433993 -1.2023295 -0.26182145 -0.41492364 -0.37867516
-1.2413039 -0.27896282 -0.38402364 -1.3375232 -1.197884 -1.2314781 -1.3451948 -1.3196831
1.1087033 1.224589 0.13475092 0.13060352 1.2099625 0.26666737 0.14590105 0.25390127
1.167248 1.3607103 1.2782078 1.0138189 1.2248844 1.2796118 0.21975955 0.20177984
1.1645507 0.9782841 -0.11809475 0.012571604 0.8764089 -0.108585425 -0.11712064 -0.14803605
0.93007 0.84075004 0.8822764 0.88605 0.8311406 0.9141225 -0.0040567573 -0.05211145
0.3790114 0.36210674 0.3796435 0.47155318 0.5345546 0.516107 0.5601374 0.45766592
0.3153518 0.4118247 0.60630435 0.5471831 0.31723887 0.32559627 0.3952673 0.40876016
-0.4373964 -0.2718212 -0.23099372 0.58584094 -0.35398775 -0.4775635 -0.36858007 -0.3527825
-0.46522003 -0.4130627 0.4808084 -0.49414992 -0.3897862 -0.36577305 0.53062576 -0.28917405
0.36894128 0.3558867 -0.6626116 -1.8709878 0.6234946 0.45299962 -0.82733524 -1.7128135
0.51560414 0.36295792 -1.4688058 -1.7034869 0.39386225 0.33778885 -1.4478251 -0.6224904
1.8325934 1.7517527 -0.59589857 -0.6359324 1.7497975 1.8532476 -0.32833964 -0.4500613
1.7678629 -0.20568411 -0.27600923 -0.3171478 1.5768603 0.68828416 -0.23596512 -0.32138145
0.5226218 0.52878845 0.30178887 0.28537893 0.44487116 0.5248183 0.3437889 0.47468168
0.55391085 0.45581955 0.38522643 0.34786674 0.4969699 0.38332734 0.38183022 0.3792285
-0.46946642 -0.45656174 -0.31238368 -0.50327104 0.6070794 -0.27065438 -0.35076973 -0.39532694
0.5131375 -0.33659753 -0.48408058 -0.43080282 -0.4027094 -0.41545933 -0.38229355 -0.24439731
-1.5432906 0.5708931 0.59916115 0.44576362 -1.4832592 0.37704942 0.4252043 0.5339753
-0.5123931 0.5679893 0.43783316 0.489072 0.45827228 0.3394358 0.5426067 0.29204682
-0.08898784 -0.19718501 1.8385402 1.9993417 -0.041528728 -0.2458093 1.7441916 1.8023264
-0.31257662 1.8437239 1.7541207 1.7519011 0.626448 1.8081683 1.8412074 0.8184715
00000000: 6bb8 ef3d db9e 1b3e dd80 a33d 1859 b63d
00000010: 5dbf 7fbf ff0c 72bf 46ba 74bf 7463 69bf
00000020: 226c 44bf 543c 3fbf b691 70bf e6fa 6fbf
00000030: 30f9 59bf 39ea 4abf 322a 68bf 6730 4dbf
00000040: 5cc1 cbbf 5e44 11bf d632 e2be 71b8 27bf
00000050: 3d08 8c3e 1756 b43e 3e9e 16bf 6402 c3be
00000060: f33b b33e ad47 b53e 75e7 20bf 67c4 1ebf
00000070: d07d 1bbf e526 bcbf 40f6 c5bf 63da d8be
00000080: 0e0e c13f f41d e63e 28b6 fe3e 7925 aa3e
00000090: 6e09 03bf 6174 01bf f029 863e bb57 d83e
000000a0: acba 13bf 0654 083f 2bb5 043f eb72 f63e
000000b0: 5a36 013f 8f5d 103f 13ef 253f 8196 08bf
000000c0: 6a8a 743f cb9e 743f 6a7b 6dbe bc31 0d3f
000000d0: e6ff 72bf 237c 0c3e 64dc 84be a49c e2be
000000e0: 2cda 86bf 3af7 acbc c61a 5ebe c783 c2be
000000f0: 8368 703f b2a8 d93d f26c d1bd 7e4f d8bd
00000100: e02c 023e bd49 293e 8d33 383e 2de9 2a3e
00000110: 9fd5 a53d 98e7 50bd a46b 873d 44aa 81bf
00000120: fdc9 45bd f00e 293e b28e 5bbf e204 86bf
00000130: 72f2 883d 2206 7abf d065 67bf 6f18 63bf
00000140: b326 7fbe 4cba afbf 7784 86be d838 82be
00000150: efe5 99bf 760d 86be df70 d4be b6e1 c1be
00000160: 0ce3 9ebf 37d4 8ebe bf9e c4be f633 abbf
00000170: 4354 99bf 13a1 9dbf 582f acbf 60eb a8bf
00000180: fde9 8d3f 55bf 9c3f 25fc 093e eebc 053e
00000190: 0de0 9a3f a088 883e 1667 153e 59ff 813e
000001a0: 6268 953f c12b ae3f 509c a33f d1c4 813f
000001b0: 03c9 9c3f 52ca a33f a608 613e 609f 4e3e
000001c0: ff0f 953f d470 7a3f a9db f1bd 21f9 4d3c
000001d0: 555c 603f 0962 debd f2dc efbd c396 17be
000001e0: 1119 6e3f 653b 573f dedc 613f 2cd4 623f
000001f0: a1c5 543f ef03 6a3f 8cee 84bb d172 55bd
00000200: c80d c23e 0e66 b93e a260 c23e 6b6f f13e
00000210: 92d8 083f 971f 043f 2a65 0f3f 3053 ea3e
00000220: cb75 a13e b0da d23e c336 1b3f 3114 0c3f
00000230: 226d a23e 8eb4 a63e 7a60 ca3e 0349 d13e
00000240: 6cf2 dfbe 262c 8bbe 9e89 6cbe acf9 153f
00000250: e23d b5be 3483 f4be 87b6 bcbe e89f b4be
00000260: 5231 eebe f47c d3be 852c f63e 3801 fdbe
00000270: 0f92 c7be 9b46 bbbe 17d7 073f 9f0e 94be
00000280: dfe5 bc3e c836 b63e eaa0 29bf 877c efbf
00000290: 589d 1f3f 91ef e73e 3ecc 53bf 793d dbbf
000002a0: a2fe 033f 9fd5 b93e d401 bcbf dc0b dabf
000002b0: 50a8 c93e a9f2 ac3e 5552 b9bf 885b 1fbf
000002c0: 6c92 ea3f 6f39 e03f cf8c 18bf 77cc 22bf
000002d0: 5df9 df3f 3837 ed3f 221c a8be 6f6e e6be
000002e0: 5549 e23f db9e 52be 1551 8dbe 3261 a2be
000002f0: 8fd6 c93f 6433 303f d7a0 71be 1c8c a4be
00000300: 8bca 053f ae5e 073f 1284 9a3e 301d 923e
00000310: 27c6 e33e 7e5a 063f 1905 b03e 7a09 f33e
00000320: 1acd 0d3f 2e61 e93e 663c c53e 971b b23e
00000330: d772 fe3e 7b43 c43e 407f c33e 3d2a c23e
00000340: e75d f0be 76c2 e9be c1f0 9fbe 5fd6 00bf
00000350: 8e69 1b3f 3693 8abe 1798 b3be 4b68 cabe
00000360: fb5c 033f 8356 acbe 69d9 f7be 3092 dcbe
00000370: ed2f cebe 16b7 d4be fbbb c3be 4a43 7abe
00000380: 8c8a c5bf 0d26 123f a062 193f 213b e43e
00000390: 70db bdbf 9f0c c13e 61b4 d93e 9bb2 083f
000003a0: 322c 03bf bf67 113f ab2b e03e a567 fa3e
000003b0: aaa2 ea3e 87ca ad3e 46e8 0a3f 2987 953e
000003c0: 423f b6bd deea 49be 4955 eb3f 6eea ff3f
000003d0: 071a 2abd 6fb5 7bbe ac41 df3f a2b2 e63f
000003e0: 0b0a a0be 25ff eb3f 0787 e03f 4c3e e03f
000003f0: e55e 203f 0f72 e73f afac eb3f 5987 513f

incep.branchClassic_2.bias f4 [8]
0.7138231 0.8807724 -0.07076197 -0.2658205 -0.7834441 -0.29712036 -1.1794605 -0.72801536
00000000: 1cbd 363f 4d7a 613f a7eb 90bd a019 88be
00000010: cb8f 48bf 2920 98be 90f8 96bf 375f 3abf

incep.branchQuantum.ql1.weights f4 [1, 8]
3.1522186 2.63955 7.704642 4.810595 -0.55214757 0.3614965 -0.18122211 3.1862879
00000000: f3bd 4940 63ee 2840 6d8c f640 65f0 9940
00000010: 8b59 0dbf 1216 b93e 4a92 39be 24ec 4b40

fc1.weight f4 [6, 432]
0.121791095 0.19991854 -0.75306 -0.35800755 0.09365377 -0.7934033 -0.7054851 -0.6444043
-1.2451459 -0.42042002 -0.7577316 -1.1873434 0.33549386 0.19707763 -0.15078555 -0.33266896
-0.8105189 -0.6952977 -0.19106488 -0.44417155 -0.44119662 0.71056426 -0.014430652 -0.26778007
-0.9131931 -0.92797536 -1.3328189 -0.18560202 -0.02297994 0.2609793 -0.8688925 -0.61842906
-0.60169965 -0.7065148 -0.9237326 0.16907138 -0.82360303 -0.854727 -0.98687977 -1.1278846
-0.78319764 -0.8380132 -0.75424165 0.16778225 -0.029731244 -0.77929 -0.17003176 0.16362394
-0.037311535 -0.10296496 -0.2106558 -1.1257367 0.3281662 0.13396856 0.13738462 -0.03379562
-1.2181848 -1.0187012 0.046692666 0.08052607 -0.8516615 -0.6290798 -0.7223723 0.07835829
-0.32623816 -0.91034794 -0.8046073 -0.63552654 0.2991165 0.1638359 -0.11521208 -0.9467836
-0.85162234 -0.07990866 0.050905865 -0.41292095 -0.4862214 -0.50947857 -0.7900844 -0.6559177
0.48906073 0.5328432 -0.1084912 0.4605489 0.46191934 -0.38657597 -0.5529676 -0.63289356
0.4713716 0.25184712 0.7586849 -0.084667936 -0.08651182 -1.8811303 0.48857343 0.30611378
-0.5400788 0.22641194 -1.1982553 -0.21560214 0.2796124 -0.66869915 -0.87721163 -1.1522955
-0.99595404 1.0913994 0.6608384 -0.7123593 -0.12372155 -0.044511683 -0.26777312 -0.19707948
-0.1258303 -0.13701977 0.954076 0.8791724 0.9247676 0.4131663 0.9025976 -0.30782127
0.7815055 -0.4143084 0.59559757 -0.07476078 -0.41345388 -0.17047252 -0.32005563 -0.6680313
-0.5457544 0.8490321 -0.40066832 -0.049219694 -0.12261052 -0.13424604 0.050424546 0.43710345
-1.1130431 -0.14504538 -0.039338708 0.118023515 0.8667043 -0.51497495 -1.073778 -0.06272344
0.22064611 0.14886223 0.3046853 0.31754392 0.16599964 0.18576054 0.11562422 0.051997054
0.5854258 2.0915494 1.7252514 0.16722845 0.10999704 0.013524509 -0.47170368 -0.3306111
0.6909798 0.24928811 0.32241264 0.5401017 1.5990938 -0.61637574 2.1840026 0.21740243
0.09335862 0.39533204 0.16916178 -0.40555105 0.31188494 0.17842427 0.1875359 0.069181435
-0.7982554 -0.38475752 -0.19383101 0.15863182 1.7855994 1.773875 1.7594407 1.7941189
1.9250946 1.7744757 1.7561636 1.5447448 1.4019552 1.7356242 1.7810358 1.7610589
0.73077667 0.34401444 0.5008908 0.5696725 1.3996993 1.8223684 1.622393 1.3752156
0.8775675 1.190954 1.5377719 1.7716321 1.7356173 1.845536 2.0865924 1.2537521
0.9217326 1.8383471 1.874995 1.9264904 1.5985756 1.3231292 1.7579187 1.8173617
2.305964 2.024164 0.7670475 0.7604501 2.027229 1.3093277 1.9795212 1.5516858
0.49675104 0.59001625 0.6991796 1.0848837 0.90306634 1.5094 1.49429 1.6217307
1.6214114 1.7776165 2.1100526 1.4627548 0.46077657 0.5491338 1.5177522 1.9854115
1.3388923 0.014447792 0.78118 0.522612 1.4995285 2.286886 1.3133923 2.2069302
0.72318614 1.5116516 1.6651882 2.2081056 0.45270437 0.67376053 0.50320965 0.30063337
00000000: 9c6d f93d 72b7 4c3e 8ac8 40bf c44c b7be
00000010: 8ccd bf3d 7b1c 4bbf ac9a 34bf aef7 24bf
00000020: f160 9fbf 4b41 d7be b3fa 41bf defa 97bf
00000030: dac5 ab3e b8ce 493e 8767 1abe 9653 aabe
00000040: 2b7e 4fbf 08ff 31bf 83a6 43be 746a e3be
00000050: 86e4 e1be 8ae7 353f 8b6e 6cbc 781a 89be
00000060: 06c7 69bf cb8f 6dbf cf99 aabf 750e 3ebe
00000070: 6d40 bcbc 149f 853e bd6f 5ebf 5e51 1ebf
00000080: fd08 1abf 27de 34bf bd79 6cbf 0c21 2d3e
00000090: a6d7 52bf 64cf 5abf 27a4 7cbf 865e 90bf
000000a0: a47f 48bf 0888 56bf fb15 41bf 1ccf 2b3e
000000b0: f08e f3bc 8d7f 47bf ce1c 2ebe 098d 273e
000000c0: fbd3 18bd 4bdf d2bd 27b6 57be 2418 90bf
000000d0: 6605 a83e 0e2f 093e 8eae 0c3e 476d 0abd
000000e0: 7bed 9bbf cd64 82bf cf40 3f3d daea a43d
000000f0: 7d06 5abf 600b 21bf 64ed 38bf 507a a03d
00000100: b008 a7be 900c 69bf befa 4dbf deb1 22bf
00000110: cc25 993e 99c4 273e 50f4 ebbd 6960 72bf
00000120: ec03 5abf 27a7 a3bd ab82 503d 606a d3be
00000130: 03f2 f8be 306d 02bf f942 4abf 39ea 27bf
00000140: 2b66 fa3e 6968 083f a230 debd 11cd eb3e
00000150: b180 ec3e 49ed c5be 498f 0dbf 5005 22bf
00000160: 9e57 f13e 1bf2 803e 2c39 423f 6266 adbd
00000170: 1c2d b1bd e1c8 f0bf 4c26 fa3e f2ba 9c3e
00000180: 9b42 0abf 88d8 673e 6e60 99bf cfc6 5cbe
00000190: 5b29 8f3e de2f 2bbf f190 60bf 6b7e 93bf
000001a0: d8f6 7ebf fab2 8b3f b52c 293f 2e5d 36bf
000001b0: b961 fdbd e251 36bd 8f19 89be 34cf 49be
000001c0: a8d9 00be e94e 0cbe 533e 743f 7111 613f
000001d0: 92bd 6c3f 898a d33e a310 673f c09a 9dbe
000001e0: bf10 483f 3b20 d4be 1579 183f 2e1c 99bd
000001f0: 3ab0 d3be 5990 2ebe 55de a3be 1904 2bbf
00000200: 8fb6 0bbf 2b5a 593f 6624 cdbe 979a 49bd
00000210: 391b fbbd cb77 09be f889 4e3d 06cc df3e
00000220: 3278 8ebf c786 14be a021 21bd 50b6 f13d
00000230: 55e0 5d3f 66d5 03bf 8f71 89bf 2675 80bd
00000240: 0ef1 613e 576f 183e b6ff 9b3e 1e95 a23e
00000250: cffb 293e 0338 3e3e 64cc ec3d ddfa 543d
00000260: 77de 153f f2db 0540 0ad5 dc3f ef3d 2b3e
00000270: 2146 e13d e795 5d3c 2583 f1be dc45 a9be
00000280: 0de4 303f 6245 7f3e 4513 a53e 1b44 0a3f
00000290: 1baf cc3f cdca 1dbf b3c6 0b40 be9e 5e3e
000002a0: ce32 bf3d f668 ca3e bf38 2d3e 63a4 cfbe
000002b0: 62af 9f3e dab4 363e 6909 403e ffae 8d3d
000002c0: 775a 4cbf f0fe c4be a37b 46be 6170 223e
000002d0: 858e e43f 560e e33f 5a35 e13f b0a5 e53f
000002e0: 8069 f63f 0522 e33f f8c9 e03f 33ba c53f
000002f0: 4573 b33f ef28 de3f fbf8 e33f 616a e13f
00000300: 2e14 3b3f a922 b03e 613a 003f 0fd6 113f
00000310: 5929 b33f 5e43 e93f 93aa cf3f 1107 b03f
00000320: 44a8 603f 2e71 983f b6d5 c43f d7c4 e23f
00000330: b528 de3f 863a ec3f bb8a 0540 f37a a03f
00000340: abf6 6b3f f54e eb3f d6ff ef3f 3d97 f63f
00000350: 209e cc3f 4c5c a93f 7b03 e13f 4f9f e83f
00000360: ea94 1340 e78b 0140 3a5d 443f dcac 423f
00000370: 1fbe 0140 0d98 a73f f360 fd3f a49d c63f
00000380: 2756 fe3e 4e0b 173f 6ffd 323f 78dd 8a3f
00000390: 5b2f 673f 0534 c13f e544 bf3f df94 cf3f
000003a0: 698a cf3f f088 e33f 1a0b 0740 8d3b bb3f
000003b0: e8ea eb3e 0894 0c3f b445 c23f f721 fe3f
000003c0: d360 ab3f 6fb6 6c3c 6afb 473f e6c9 053f
000003d0: 8df0 bf3f 575c 1240 3d1d a83f 583e 0d40
000003e0: ba22 393f cd7d c13f e324 d53f 9a51 0d40
000003f0: dec8 e73e 927b 2c3f 59d2 003f 9eec 993e

fc1.bias f4 [6]
0.10781534 -0.12203895 0.16587812 -0.47857034 -0.6681991 -1.0635551
00000000: 4ace dc3d 8fef f9bd f4db 293e 2c07 f5be
00000010: 190f 2bbf 9322 88bf

fc2.weight f4 [3, 6]
-1.2890455 0.4045841 0.86006737 0.2647378 0.5192764 0.56087667 0.31216484 0.21212806
-0.33041114 -0.60746926 0.8428832 1.0803653 0.118678905 0.47880825 -0.04122463 0.33385348
-0.4865102 -0.21481125
00000000: 71ff a4bf a625 cf3e 602d 5c3f b78b 873e
00000010: 4cef 043f 9d95 0f3f 12d4 9f3e 1938 593e
00000020: a62b a9be 1b83 1bbf 32c7 573f 6949 8a3f
00000030: ed0d f33d 5b26 f53e 28db 28bd d8ee aa3e
00000040: dd17 f9be 7bf7 5bbe

fc2.bias f4 [3]
0.30827752 -0.31090388 -0.19120082
00000000: 8dd6 9d3e cb2e 9fbe 26ca 43be
