QC-CNN-main/inception--default.qubit.torch--best(10 epochs Adam)-best_model.pth (torch, 17492 bytes, 9 tensors)

incep.branchClassic_1.weight f4 [4, 1, 1, 1]
0.06962562 0.40288085 -0.86851394 -0.96319586
00000000: e197 8e3d 6646 ce3e ee56 5ebf 0194 76bf

incep.branchClassic_1.bias f4 [4]
-0.11597403 -0.08361802 0.2476481 0.6633732
00000000: cb83 edbd ed3f abbd 7797 7d3e d3d2 293f

incep.branchClassic_2.weight f4 [8, 4, 4, 4]
0.033532336 0.056660287 0.0904293 0.050115302 -0.19748478 -0.06919551 0.0007232664 -0.091897376
-0.09088886 0.01506284 -0.08652709 -0.1246285 -0.046411593 0.09570961 -0.11953925 0.133267
0.13887523 0.33526173 0.42579386 0.21206783 0.040584505 0.20417677 0.082799345 0.02196918
-0.26819018 -0.3002653 -0.35811257 -0.6069348 -0.4168263 -0.011039702 -0.29653093 0.17940903
-0.1921776 -0.4043568 -0.322306 -0.46527046 -0.21630104 -0.3011426 -0.048569098 0.20865946
0.20638911 0.27954337 0.36097527 0.7359423 0.45806813 0.13357975 0.44913086 -0.19099307
-0.17896529 -0.41756916 -0.43933874 -0.4237799 0.050312627 -0.14483817 -0.17750649 0.2608715
0.33562398 0.24331616 0.21451102 0.61192733 0.41790655 0.1795694 0.21975894 -0.1736629
-0.015746498 0.08669722 0.04966508 -0.021522962 0.02180098 -0.14867027 -0.035996098 -0.064090624
-0.17042989 -0.019377407 -0.024270404 -0.21268979 -0.12942083 -0.15758339 -0.12386512 -0.14678149
0.116070904 0.1999404 0.28345633 0.28453606 0.14682578 0.2579199 0.048768636 0.264551
0.11691618 -0.040186673 -0.25346324 -0.15331164 -0.056814093 -0.12869479 -0.3431722 -0.23892736
-0.16359645 -0.3082438 -0.3320638 -0.32464448 -0.048327334 -0.18567315 -0.22744718 -0.31417844
-0.11740734 0.21654852 0.29303354 0.008469785 0.17725596 0.26726085 0.3567778 0.29922533
0.08139125 -0.25418648 -0.25666803 -0.16182789 -0.08105695 -0.21154568 -0.15884511 -0.44842508
-0.036365036 0.04694259 0.2276477 0.2280057 0.14637287 0.2778566 0.4774837 0.34954235
0.063558325 0.029842973 0.05740481 0.12140897 0.15292545 0.1030759 0.13767645 0.019521551
-0.07754726 -0.02227648 0.12573884 0.055036522 -0.016330006 -0.041300446 -0.069013365 -0.05805016
0.014408058 0.04138519 0.012533756 -0.1706399 0.028398158 -0.21369906 -0.102667734 -0.09436913
-0.04527843 -0.016987903 -0.08534946 -0.020000093 -0.0063832 0.0053859446 -0.0016467399 0.15208393
-0.2163464 0.028234374 0.24247032 0.056031346 0.182436 0.22348204 0.045864962 0.1641793
-0.026320286 -0.060200114 0.064863294 -0.25206274 -0.018811656 -0.046998702 -0.011474035 -0.14552574
-0.27083415 0.033897087 0.012062824 -0.035586245 0.059259318 0.48866192 0.28758183 0.17340574
-0.15003008 -0.009081157 -0.20198151 -0.45266205 -0.21257566 -0.022243518 -0.25193512 -0.3270631
0.06590013 0.14535715 -0.025880482 -0.021889148 -0.0077569154 0.15195017 0.017692264 0.16994071
0.113365166 0.07764909 0.060878027 0.03964559 0.08554167 0.03643948 0.059505213 0.08170577
-0.18967684 -0.13848272 0.08335009 -0.13701774 -0.02322403 0.057550542 -0.036963623 -0.039421074
-0.16190518 -0.033215906 -0.17181458 -0.11541835 -0.08419763 -0.10913166 -0.09248733 0.033437375
0.10712342 0.2010198 0.061908532 -0.052780263 0.07578563 -0.01564553 0.046240173 0.082115985
0.07853472 0.219252 0.059826188 0.09499943 0.049422044 -0.018936431 0.21613991 -0.032415044
0.026550066 -0.054880038 -0.1944015 -0.053920493 0.014479199 -0.077583976 -0.022616804 -0.1372722
-0.22585554 0.0978641 -0.02841683 0.03909324 -0.11911838 0.06455054 0.08588951 0.11723278
00000000: 3459 093d 9e14 683d ff32 b93d b445 4d3d
00000010: 7339 4abe 60b6 8dbd 9699 3d3a b134 bcbd
00000020: f023 babd 21ca 763c 1d35 b1bd 3a3d ffbd
00000030: 151a 3ebd 6603 c43d ffd0 f4bd 2577 083e
00000040: 4f35 0e3e 6da7 ab3e a701 da3e 4f28 593e
00000050: f03b 263d b713 513e b492 a93d b6f8 b33c
00000060: 3950 89be 60bc 99be 885a b7be 1460 1bbf
00000070: 426a d5be dedf 34bc e7d2 97be 00b7 373e
00000080: 34ca 44be db07 cfbe 4b05 a5be ee37 eebe
00000090: 057e 5dbe 5d2f 9abe 64f0 46bd d3aa 553e
000000a0: ab57 533e 4f20 8f3e c0d1 b83e b766 3c3f
000000b0: e887 ea3e 21c9 083e 7bf4 e53e b093 43be
000000c0: ad42 37be a0cb d5be 02f1 e0be aef9 d8be
000000d0: 9d14 4e3d 7550 14be 43c4 35be f390 853e
000000e0: e8d6 ab3e df27 793e c7a8 5b3e 45a7 1c3f
000000f0: d9f7 d53e 0ae1 373e 7d08 613e b0d4 31be
00000100: cdfe 80bc 508e b13d 9c6d 4b3d ec50 b0bc
00000110: f897 b23c 053d 18be a570 13bd f241 83bd
00000120: 2c85 2ebe 5ebd 9ebc bad2 c6bc 5acb 59be
00000130: e586 04be 8a5d 21be ffac fdbd e34d 16be
00000140: 95b6 ed3d 2dbd 4c3e 3021 913e b6ae 913e
00000150: 7f59 163e 140e 843e 9fc1 473d 3b73 873e
00000160: c071 ef3d c89a 24bd efc5 81be bafd 1cbe
00000170: e5b5 68bd 91c8 03be 44b4 afbe 60a9 74be
00000180: d485 27be 22d2 9dbe 4404 aabe cd37 a6be
00000190: e2f2 45bd 1a21 3ebe eae7 68be ffdb a0be
000001a0: 4273 f0bd e5be 5d3e 7e08 963e dac4 0a3c
000001b0: 9682 353e 6ad6 883e 94ab b63e 1034 993e
000001c0: 75b0 a63d bb24 82be fe69 83be 36b6 25be
000001d0: 3001 a6bd 6e9f 58be 4ba8 22be f997 e5be
000001e0: 81f3 14bd e046 403d 7b1c 693e 547a 693e
000001f0: c5e2 153e 3843 8e3e be78 f43e 37f7 b23e
00000200: de2a 823d 4079 f43c 4e21 6b3d 44a5 f83d
00000210: 7d98 1c3e 7519 d33d 0efb 0c3e a9eb 9f3c
00000220: 19d1 9ebd 2a7d b6bc afc1 003e fa6d 613d
00000230: 81c6 85bc a82a 29bd e156 8dbd 01c6 6dbd
00000240: c60f 6c3c 8483 293d 625a 4d3c 3abc 2ebe
00000250: 41a3 e83c edd3 5abe 7643 d2bd 9a44 c1bd
00000260: e075 39bd 372a 8bbc b3cb aebd 3cd7 a3bc
00000270: 2a2a d1bb 947c b03b 6cd7 d7ba e4bb 1b3e
00000280: e989 5dbe c64b e73c 244a 783e 2081 653d
00000290: 81d0 3a3e 7ad8 643e e6dc 3b3d 9e1e 283e
000002a0: a49d d7bc 6594 76bd 0cd7 843d 5e0e 81be
000002b0: e71a 9abc b681 40bd 97fd 3bbc b304 15be
000002c0: c6aa 8abe acd7 0a3d 27a3 453c e2c2 11bd
000002d0: e6b9 723d e531 fa3e ed3d 933e 4691 313e
000002e0: 7ca1 19be 22c9 14bc 3ed4 4ebe 52c3 e7be
000002f0: 6fad 59be 0a38 b6bc a4fd 80be d174 a7be
00000300: a6f6 863d 81d8 143e 4e03 d4bc df50 b3bc
00000310: b92d febb d398 1b3e 5eef 903c f004 2e3e
00000320: ff2b e83d 7c06 9f3d 3d5b 793d 6a63 223d
00000330: 7930 af3d 9041 153d bdbb 733d 5b55 a73d
00000340: a53a 42be 6ace 0dbe 74b3 aa3d 614e 0cbe
00000350: 5240 bebc 1eba 6b3d 2b67 17bd fe77 21bd
00000360: 79ca 25be 670d 08bd 29f0 2fbe 7560 ecbd
00000370: cf6f acbd 6b80 dfbd ff69 bdbd a1f5 083d
00000380: 8663 db3d 22d8 4d3e cd93 7d3d 1e30 58bd
00000390: 7f35 9b3d 0e2b 80bc 5666 3d3d 6d2c a83d
000003a0: d0d6 a03d 9983 603e 4e0c 753d 108f c23d
000003b0: c56e 4a3d 9320 9bbc c853 5d3e a3c5 04bd
000003c0: 867f d93c e4c9 60bd 3011 47be bcdb 5cbd
000003d0: 2a3a 6d3c 59e4 9ebd e046 b9bc 1591 0cbe
000003e0: ad46 67be f96c c83d 69ca e8bc 3c20 203d
000003f0: 56f4 f3bd 1333 843d d7e6 af3d bd17 f03d

incep.branchClassic_2.bias f4 [8]
0.0689676 0.1226215 -0.017116163 -0.15042447 -0.13379243 -0.15504955 0.016771367 -0.13398038
00000000: e33e 8d3d fb20 fb3d 3237 8cbc df08 1abe
00000010: e200 09be 4fc5 1ebe 1b64 893c 2732 09be

incep.branchQuantum.ql1.weights f4 [1, 8]
3.1127162 1.5868734 6.296909 6.2430844 0.6220705 0.5348227 0.8419034 3.0671928
00000000: be36 4740 ab1e cb3f 4780 c940 59c7 c740
00000010: 0340 1f3f 24ea 083f fb86 573f e34c 4440

fc1.weight f4 [6, 432]
0.061669055 -0.10296159 -0.22085913 0.7949089 0.4134959 0.18698877 -0.19772671 0.07028985
0.2600755 -0.0004356934 -0.4847598 0.25936425 0.5697552 0.36691773 0.449981 0.5065539
0.34969038 0.046173107 -0.15492985 0.2961259 -0.13251014 -0.40415725 -0.16157453 -0.099467285
0.34130797 -0.25107914 -0.4893815 0.13240795 0.1618795 0.3110793 0.08317892 0.006246071
-0.15027845 -0.06365946 -0.16455525 -0.08665521 -0.14147678 -0.03406446 0.4692433 0.3071705
0.0023635984 0.25151938 0.42932206 0.594547 0.09318741 -0.16678283 0.10469568 0.17029607
0.31469977 0.19884545 0.3882172 0.19641988 0.1765199 0.09124525 -0.033245634 -0.055764724
-0.42572272 -0.17287228 -0.0612513 0.09135516 0.21942747 -0.3046138 -0.14094676 0.027777975
0.19409753 0.18101352 -0.19983934 -0.07314776 -0.037546903 -0.00042356068 -0.01232411 -0.24315637
0.18339603 -0.00042050783 -0.2641187 -0.072223626 -0.072325125 -0.049292743 0.07692889 0.008320636
0.22685385 0.2530013 0.2693688 0.14012599 -0.05291603 0.00019667366 -0.35107902 -0.31915385
-0.2951803 0.0059269797 0.0935344 -0.06254409 0.13823079 0.06236124 0.09865426 0.05978712
-0.27791002 -0.15563312 0.09812137 -0.049584754 0.007016849 -0.07635906 0.09247932 -0.027120387
0.104534104 -0.1007662 0.17551093 -0.018485185 -0.1322288 -0.101716354 -0.025981475 0.24722612
-0.052850466 -0.10072418 -0.03468711 0.017056372 0.038063034 -0.23764126 -0.12600717 -0.14325441
-0.0031024758 0.28424948 0.3493134 0.21768877 -0.12284932 -0.14130616 -0.08751843 -0.08822978
-0.1323139 0.109179765 -0.16855927 -0.03209894 -0.0760799 -0.026705012 -0.028457778 -0.021330643
-0.08029054 -0.07313674 -0.044742152 0.03729114 -0.011632127 -0.13565338 -0.07272451 -0.0868123
-0.013064699 -0.029484354 0.6222108 0.9497901 0.34076545 0.12275882 -0.05737315 -0.065545045
0.15685777 -0.024848636 -0.13602562 0.13673918 0.07272988 0.50950634 0.4196233 0.1870903
0.020648813 0.02545442 -0.13547117 0.0689916 0.16388656 -0.029473638 -0.039149214 0.1022023
0.004423685 0.25392795 0.2560261 0.009807597 0.12792936 0.012256171 0.030524164 0.030369813
-0.21538724 -0.13636225 -0.06541752 0.06740576 0.13084023 -0.039974127 -0.10555248 -0.0062036635
0.084205166 -0.0508367 -0.07963682 0.08963525 0.26313165 0.441343 0.13027938 -0.114233725
0.104482464 0.008146117 0.092935875 -0.092773214 -0.15859362 0.04543112 0.06314753 0.3534769
0.5062508 0.06912529 -0.06784116 -0.12505469 -0.09764247 0.2764467 0.21716635 -0.05533592
-0.1477588 0.22110349 0.09297552 0.19968559 0.09729715 0.0071044103 -0.10249695 0.05777544
-0.03706872 0.071436785 -0.14369012 0.119994245 0.08910011 -0.03992668 -0.038785703 -0.018868595
0.021903394 0.10586006 -0.20332924 -0.0061235116 -0.0031857325 0.11424482 0.20695612 0.25183114
0.027145764 0.17582436 -0.08304765 0.04196192 0.28677866 -0.07281311 0.081811346 0.0045072935
-0.08165858 0.10834185 0.05801371 -0.045352314 -0.003924613 0.19792436 -0.11602137 -0.05394605
-0.044728283 -0.028360792 -0.078039385 -0.06240816 -0.11425138 -0.06904589 0.4212521 -0.28056827
00000000: b198 7c3d 87dd d2bd e528 62be 267f 4b3f
00000010: bcb5 d33e fc79 3f3e df78 4abe 20f4 8f3d
00000020: 9e28 853e c76d e4b9 7032 f8be 64cb 843e
00000030: 7adb 113f a4dc bb3e e963 e63e 84ad 013f
00000040: 9e0a b33e 0320 3d3d eea5 1ebe d09d 973e
00000050: bdb0 07be b3ed cebe cb73 25be 81b5 cbbd
00000060: ebbf ae3e 728d 80be 3690 fabe f395 073e
00000070: bdc3 253e c945 9f3e b659 aa3d d7ab cc3b
00000080: 98e2 19be e45f 82bd 2c81 28be 4978 b1bd
00000090: 4adf 10be 2d87 0bbd a840 f03e 7445 9d3e
000000a0: 9ae6 1a3b 26c7 803e 1ad0 db3e 3b34 183f
000000b0: 0ad9 be3d 1ec9 2abe b06a d63d 1862 2e3e
000000c0: 5420 a13e 249e 4b3e 68c4 c63e 4b22 493e
000000d0: a2c1 343e cade ba3d 932c 08bd 8d69 64bd
000000e0: 54f8 d9be 6e05 31be a5e2 7abd 6a18 bb3d
000000f0: 98b1 603e 57f6 9bbe 5954 10be a38e e33c
00000100: 81c1 463e 9c5b 393e afa2 4cbe 7ece 95bd
00000110: c8ca 19bd 5a11 deb9 10eb 49bc fcfd 78be
00000120: 2bcc 3b3e 9b77 dcb9 913a 87be fbe9 93bd
00000130: 321f 94bd 30e7 49bd e58c 9d3d 4753 083c
00000140: 604c 683e 6389 813e b5ea 893e 307d 0f3e
00000150: 7bbe 58bd 2f3a 4e39 a1c0 b3be 2268 a3be
00000160: df21 97be 1c37 c23b f78e bf3d 1e17 80bd
00000170: 5f8c 0d3e 806e 7f3d 3f0b ca3d 57e3 743d
00000180: 394a 8ebe 4a5e 1fbe dbf3 c83d 6219 4bbd
00000190: 98ed e53b 2462 9cbd cc65 bd3d 932b debc
000001a0: fa15 d63d 825e cebd 23b9 333e 3e6e 97bc
000001b0: fd66 07be aa50 d0bd 1ad7 d4bc d828 7d3e
000001c0: bb79 58bd 7b48 cebd 1214 0ebd ceb9 8b3c
000001d0: fce7 1b3d 3b58 73be 0608 01be 49b1 12be
000001e0: e852 4bbb 2689 913e 35d9 b23e cee9 5e3e
000001f0: 6d98 fbbd 90b2 10be dd3c b3bd d1b1 b4bd
00000200: 4c7d 07be a499 df3d cd9a 2cbe 2e7a 03bd
00000210: c7cf 9bbd 78c4 dabc 4920 e9bc 9abd aebc
00000220: 5e6f a4bd b7c8 95bd 8c43 37bd 98be 183d
00000230: ad94 3ebc b8e8 0abe 97f0 94bd a6ca b1bd
00000240: 520d 56bc 2c89 f1bc 3549 1f3f 7225 733f
00000250: cf78 ae3e fa68 fb3d 1c00 6bbd 7b3c 86bd
00000260: 539f 203e 5e8f cbbc 4d4a 0bbe 5b05 0c3e
00000270: 67f3 943d 026f 023f ddd8 d63e 9994 3f3e
00000280: b327 a93c ca85 d03c f4b8 0abe 784b 8d3d
00000290: e1d1 273e b372 f1bc ed5a 20bd 714f d13d
000002a0: 8ff4 903b d802 823e da15 833e 0bb0 203c
000002b0: eaff 023e 1bce 483c d00d fa3c 1dca f83c
000002c0: 798e 5cbe 8ca2 0bbe 9ff9 85bd 080c 8a3d
000002d0: fbfa 053e e9bb 23bd e62b d8bd 1a48 cbbb
000002e0: c273 ac3d 253a 50bd a118 a3bd b092 b73d
000002f0: 31b9 863e b6f7 e13e f567 053e 5ff3 e9bd
00000300: e7fa d53d 4b77 053c 2a55 be3d e2ff bdbd
00000310: 5e66 22be fb15 3a3d 7e53 813d edfa b43e
00000320: a799 013f 8f91 8d3d 4ef0 8abd 560e 00be
00000330: c6f8 c7bd 6c8a 8d3e db60 5e3e eba7 62bd
00000340: 154e 17be f468 623e f369 be3d 617a 4c3e
00000350: ba43 c73d 1dcc e83b ece9 d1bd f1a5 6c3d
00000360: 5fd5 17bd 734d 923d 8123 13be 8bbf f53d
00000370: 1e7a b63d 298a 23bd c2dd 1ebd 5092 9abc
00000380: bf6e b33c 29cd d83d 8a35 50be bda7 c8bb
00000390: b9c7 50bb 30f9 e93d 4eec 533e 03f0 803e
000003a0: cb60 de3c 4d0b 343e e314 aabd 43e0 2b3d
000003b0: a7d4 923e 0a1f 95bd b58c a73d ebb1 933b
000003c0: 9d3c a7bd 55e2 dd3d c99f 6d3d 59c3 39bd
000003d0: 0a9a 80bb afac 4a3e 9d9c edbd 89f6 5cbd
000003e0: 0135 37bd e454 e8bc 1dd3 9fbd b39f 7fbd
000003f0: a1fc e9bd ee67 8dbd 5bae d73e a5a6 8fbe

fc1.bias f4 [6]
0.107325114 0.04567846 0.023370545 0.041859776 -0.11985258 -0.05803344
00000000: 45cd db3d 5619 3b3d 9673 bf3c 2875 2b3d
00000010: 4575 f5bd 79b4 6dbd

fc2.weight f4 [3, 6]
0.27524775 0.13876405 0.13811077 -0.13160072 0.002729982 0.13165188 -0.3856959 0.5135444
0.41895097 0.25698516 -0.43258157 -0.62496895 -0.304693 0.4989374 -0.48427024 -0.3634784
-0.050878644 0.1715159
00000000: 46ed 8c3e 2a18 0e3e e96c 0d3e 57c2 06be
00000010: 7fe9 323b c0cf 063e ef79 c5be a577 033f
00000020: be80 d63e 8f93 833e 557b ddbe f7fd 1fbf
00000030: b900 9cbe b974 ff3e 45f2 f7be d719 babe
00000040: 2066 50bd dda1 2f3e

fc2.bias f4 [3]
-0.47816914 -0.28425765 0.013220343
00000000: 96d2 f4be 388a 91be 239a 583c
