QC-CNN-main/inception--default.qubit.torch--best(200 epochs)-best_model.pth (torch, 17440 bytes, 9 tensors)

incep.branchClassic_1.weight f4 [4, 1, 1, 1]
0	0x3d8e97f1	0.06962574
1	0x3ece465a	0.4028805
2	0xbf5e56f2	-0.8685142
3	0xbf7693ff	-0.96319574

incep.branchClassic_1.bias f4 [4]
0	0xbded83c3	-0.11597397
1	0xbdab4007	-0.083618216
2	0x3e7d977c	0.24764818
3	0x3f29d2d5	0.6633733

incep.branchClassic_2.weight f4 [8, 4, 4, 4]
0	0x3d095946	0.033532403
1	0x3d6814c2	0.05666042
2	0x3db9331c	0.090429515
3	0x3d4d45e8	0.050115496
4	0xbe4a3975	-0.1974848
5	0xbd8db651	-0.0691954
6	0x3a3d95c9	0.00072320976
7	0xbdbc34a5	-0.09189729
8	0xbdba23d9	-0.09088869
9	0x3c76c9d1	0.015062765
10	0xbdb1350d	-0.08652697
11	0xbdff3d30	-0.124628425
12	0xbd3e19e9	-0.04641143
13	0x3dc40380	0.0957098
14	0xbdf4d0f3	-0.119539164
15	0x3e08772a	0.13326707
16	0x3e0e3548	0.13887513
17	0x3eaba768	0.33526158
18	0x3eda01a5	0.4257938
19	0x3e592850	0.21206784
20	0x3d263bd4	0.0405844
21	0x3e5113a7	0.20417653
22	0x3da99299	0.082799144
23	0x3cb3f85a	0.02196901
24	0xbe895039	-0.26819018
25	0xbe99bc60	-0.3002653
26	0xbeb75a88	-0.35811257
27	0xbf1b6017	-0.60693496
28	0xbed56a3c	-0.41682613
29	0xbc34de8a	-0.011039386
30	0xbe97d2e5	-0.29653087
31	0x3e37b6fc	0.17940897
32	0xbe44ca37	-0.19217764
33	0xbecf07dc	-0.40435684
34	0xbea50548	-0.32230592
35	0xbeee37f4	-0.46527064
36	0xbe5d7df7	-0.21630083
37	0xbe9a2f5c	-0.30114257
38	0xbd46f030	-0.048568904
39	0x3e55aadc	0.20865959
40	0x3e5357a7	0.20638905
41	0x3e8f2058	0.27954364
42	0x3eb8d1c0	0.36097527
43	0x3f3c66bd	0.73594266
44	0x3eea87e3	0.45806798
45	0x3e08c90b	0.13357942
46	0x3ee5f478	0.44913077
47	0xbe4393b4	-0.19099313
48	0xbe3742a9	-0.17896523
49	0xbed5cba6	-0.41756934
50	0xbee0f0fc	-0.43933856
51	0xbed8f9b4	-0.42378008
52	0x3d4e14bf	0.050312754
53	0xbe14506d	-0.14483805
54	0xbe35c438	-0.17750633
55	0x3e8590f4	0.26087153
56	0x3eabd6e2	0.3356238
57	0x3e7927e6	0.24331626
58	0x3e5ba8c4	0.21451098
59	0x3f1ca74a	0.6119276
60	0x3ed5f7d4	0.4179064
61	0x3e37e0f7	0.17956911
62	0x3e610878	0.21975887
63	0xbe31d4ae	-0.17366287
64	0xbc80fef3	-0.01574657
65	0x3db18e5a	0.086697295
66	0x3d4b6d83	0.049664985
67	0xbcb050c0	-0.02152288
68	0x3cb297f6	0.021800976
69	0xbe183d07	-0.1486703
70	0xbd13709f	-0.035996076
71	0xbd8341e1	-0.0640905
72	0xbe2e8523	-0.17042975
73	0xbc9ebd43	-0.019377356
74	0xbcc6d2b4	-0.024270393
75	0xbe59cb5e	-0.21268985
76	0xbe0486ea	-0.1294209
77	0xbe215d88	-0.15758336
78	0xbdfdacf2	-0.12386502
79	0xbe164de0	-0.14678144
80	0x3dedb684	0.11607078
81	0x3e4cbd30	0.19994044
82	0x3e912132	0.2834564
83	0x3e91aeac	0.28453577
84	0x3e165981	0.1468258
85	0x3e840e16	0.25791997
86	0x3d47c1a6	0.048768662
87	0x3e87733f	0.26455113
88	0x3def71bf	0.11691617
89	0xbd249a9c	-0.04018651
90	0xbe81c5f1	-0.2534633
91	0xbe1cfdbf	-0.15331171
92	0xbd68b5e7	-0.0568141
93	0xbe03c891	-0.12869479
94	0xbeafb441	-0.3431721
95	0xbe74a956	-0.23892722
96	0xbe2785cb	-0.16359632
97	0xbe9dd223	-0.30824384
98	0xbeaa043e	-0.33206362
99	0xbea637ce	-0.3246445
100	0xbd45f2e2	-0.048327334
101	0xbe3e211f	-0.18567322
102	0xbe68e7e8	-0.22744715
103	0xbea0dbfd	-0.31417838
104	0xbdf0734a	-0.1174074
105	0x3e5dbed3	0.21654825
106	0x3e960881	0.29303363
107	0x3c0ac4e4	0.008469794
108	0x3e35829b	0.17725603
109	0x3e88d66a	0.26726085
110	0x3eb6ab95	0.35677782
111	0x3e993411	0.29922536
112	0x3da6b09e	0.08139156
113	0xbe8224ba	-0.25418645
114	0xbe8369fa	-0.2566679
115	0xbe25b63a	-0.16182795
116	0xbda60124	-0.08105686
117	0xbe589f69	-0.2115456
118	0xbe22a852	-0.15884522
119	0xbee597fc	-0.44842517
120	0xbd14f390	-0.03636509
121	0x3d4046c2	0.04694248
122	0x3e691c7e	0.22764775
123	0x3e697a61	0.2280059
124	0x3e15e2cb	0.14637296
125	0x3e8e4338	0.2778566
126	0x3ef478bc	0.47748363
127	0x3eb2f737	0.34954235
128	0x3d822ae0	0.06355834
129	0x3cf47948	0.029842988
130	0x3d6b215b	0.057404857
131	0x3df8a544	0.12140897
132	0x3e1c987f	0.15292548
133	0x3dd31978	0.10307592
134	0x3e0cfb0f	0.13767646
135	0x3c9febaa	0.019521553
136	0xbd9ed114	-0.07754722
137	0xbcb67d12	-0.022276435
138	0x3e00c1ae	0.12573883
139	0x3d616dfb	0.055036526
140	0xbc85c68a	-0.016330022
141	0xbd292aa4	-0.04130043
142	0xbd8d56e0	-0.06901336
143	0xbd6dc601	-0.05805016
144	0x3c6c0fba	0.014408046
145	0x3d29837e	0.041385166
146	0x3c4d5a6d	0.012533766
147	0xbe2ebc3d	-0.17063995
148	0x3ce8a34a	0.028398175
149	0xbe5ad3f0	-0.2136991
150	0xbdd2437a	-0.102667764
151	0xbdc1449a	-0.09436913
152	0xbd3975e2	-0.045278437
153	0xbc8b2a29	-0.016987877
154	0xbdaecbab	-0.0853494
155	0xbca3d735	-0.02000008
156	0xbbd12b00	-0.0063833
157	0x3bb07bf5	0.0053858706
158	0xbad7d819	-0.00164676
159	0x3e1bbbe7	0.15208398
160	0xbe5d89e9	-0.2163464
161	0x3ce74bc6	0.028234374
162	0x3e784a1c	0.2424702
163	0x3d65812e	0.0560314
164	0x3e3ad077	0.18243586
165	0x3e64d878	0.22348201
166	0x3d3bdcde	0.045864932
167	0x3e281e9b	0.16417925
168	0xbcd79db1	-0.02632031
169	0xbd769476	-0.060200177
170	0x3d84d708	0.064863265
171	0xbe810e5e	-0.25206274
172	0xbc9a1a84	-0.018811472
173	0xbd4081a6	-0.046998642
174	0xbc3bfd66	-0.011473989
175	0xbe1504b7	-0.1455258
176	0xbe8aaac9	-0.27083424
177	0x3d0ad7ad	0.03389709
178	0x3c45a298	0.012062691
179	0xbd11c2df	-0.035586234
180	0x3d72b99d	0.059259046
181	0x3efa31e1	0.4886618
182	0x3e933dec	0.2875818
183	0x3e319140	0.17340565
184	0xbe19a185	-0.15003021
185	0xbc14ca03	-0.0090813665
186	0xbe4ed44b	-0.20198171
187	0xbee7c34d	-0.4526619
188	0xbe59ad65	-0.21257551
189	0xbcb637d6	-0.022243422
190	0xbe80fda6	-0.25193518
191	0xbea774d6	-0.32706326
192	0x3d86f6a4	0.06590012
193	0x3e14d87f	0.14535712
194	0xbcd4034c	-0.025880478
195	0xbcb350cf	-0.021889118
196	0xbbfe2dd9	-0.0077569303
197	0x3e1b98cf	0.1519501
198	0x3c90ef56	0.01769225
199	0x3e2e04ef	0.1699407
200	0x3de82bfd	0.11336515
201	0x3d9f0677	0.07764905
202	0x3d795b40	0.06087804
203	0x3d226369	0.039645586
204	0x3daf307b	0.08554169
205	0x3d15418d	0.036439467
206	0x3d73bbb2	0.059505172
207	0x3da75558	0.08170575
208	0xbe423aa2	-0.18967679
209	0xbe0dce64	-0.13848263
210	0x3daab37b	0.083350144
211	0xbe0c4e5c	-0.13701767
212	0xbcbe4031	-0.023223968
213	0x3d6bba2a	0.057550587
214	0xbd17672a	-0.03696362
215	0xbd2177fa	-0.03942106
216	0xbe25ca74	-0.16190511
217	0xbd080d68	-0.03321591
218	0xbe2ff027	-0.17181455
219	0xbdec6072	-0.11541833
220	0xbdac6fc4	-0.08419755
221	0xbddf806d	-0.10913167
222	0xbdbd6a04	-0.092487365
223	0x3d08f5a6	0.033437394
224	0x3ddb637e	0.10712336
225	0x3e4dd81e	0.20101973
226	0x3d7d93ad	0.061908413
227	0xbd58303e	-0.052780382
228	0x3d9b3575	0.075785555
229	0xbc802b21	-0.015645565
230	0x3d3d6648	0.04624012
231	0x3da82c67	0.08211594
232	0x3da0d6bf	0.078534596
233	0x3e60839c	0.21925205
234	0x3d750c44	0.05982615
235	0x3dc28f04	0.09499934
236	0x3d4a6e8c	0.049421832
237	0xbc9b2089	-0.018936412
238	0x3e5d53c5	0.21613987
239	0xbd04c5a4	-0.032415047
240	0x3cd97f6a	0.026550014
241	0xbd60c9e7	-0.05488005
242	0xbe47113a	-0.19440165
243	0xbd5cdbf3	-0.053920697
244	0x3c6d3a2f	0.014479204
245	0xbd9ee452	-0.077583924
246	0xbcb946f9	-0.02261685
247	0xbe0c9118	-0.13727224
248	0xbe6746b1	-0.2258556
249	0x3dc86d00	0.09786415
250	0xbce8ca76	-0.028416853
251	0x3d202047	0.039093282
252	0xbdf3f45f	-0.119118445
253	0x3d84331d	0.064550616
254	0x3dafe6d4	0.08588949
255	0x3df017c9	0.11723287

incep.branchClassic_2.bias f4 [8]
0	0x3d8d3ed4	0.06896749
1	0x3dfb210c	0.122621626
2	0xbc8c3741	-0.01711619
3	0xbe1a08d7	-0.15042435
4	0xbe0900d9	-0.1337923
5	0xbe1ec548	-0.15504944
6	0x3c896497	0.016771598
7	0xbe093225	-0.13398035

incep.branchQuantum.ql1.weights f4 [1, 8]
0	0x404736bf	3.1127164
1	0x3fcb1eab	1.5868734
2	0x40c98047	6.296909
3	0x40c7c758	6.243084
4	0x3f1f4001	0.6220704
5	0x3f08ea25	0.53482276
6	0x3f5786fa	0.8419033
7	0x40444ce4	3.067193

fc1.weight f4 [6, 432]
0	0x3d7c98cd	0.06166916
1	0xbdd2dd80	-0.10296154
2	0xbe6228f3	-0.22085933
3	0x3f4b7f25	0.7949088
4	0x3ed3b5b7	0.41349575
5	0x3e3f79f3	0.18698864
6	0xbe4a78e6	-0.19772682
7	0x3d8ff40b	0.070289694
8	0x3e8528a7	0.26007578
9	0xb9e46a59	-0.00043566784
10	0xbef83273	-0.4847599
11	0x3e84cb6e	0.25936455
12	0x3f11db75	0.5697549
13	0x3ebbdca0	0.3669176
14	0x3ee663e8	0.44998097
15	0x3f01ad82	0.50655377
16	0x3eb30a93	0.34969005
17	0x3d3d2003	0.046173107
18	0xbe1ea5e3	-0.15492968
19	0x3e979dd2	0.29612595
20	0xbe07b0c2	-0.13251022
21	0xbeceedbc	-0.40415752
22	0xbe2573d5	-0.16157468
23	0xbdcbb591	-0.099467404
24	0x3eaebff8	0.34130836
25	0xbe808d6e	-0.25107902
26	0xbefa9030	-0.4893813
27	0x3e079603	0.13240819
28	0x3e25c3be	0.16187951
29	0x3e9f45d2	0.31107956
30	0x3daa59c5	0.083179034
31	0x3bccab54	0.00624601
32	0xbe19e29e	-0.15027854
33	0xbd825fe1	-0.06365944
34	0xbe288127	-0.16455518
35	0xbdb1784b	-0.08665522
36	0xbe10df38	-0.14147651
37	0xbd0b876d	-0.0340647
38	0x3ef040ac	0.4692434
39	0x3e9d457b	0.30717072
40	0x3b1aea58	0.0023638215
41	0x3e80c729	0.25151947
42	0x3edbd01d	0.42932215
43	0x3f183440	0.5945473
44	0x3dbed925	0.09318761
45	0xbe2ac922	-0.16678289
46	0x3dd66aa5	0.104695596
47	0x3e2e622c	0.17029637
48	0x3ea12058	0.3146999
49	0x3e4b9e26	0.19884548
50	0x3ec6c467	0.38821718
51	0x3e492252	0.19641998
52	0x3e34c1a4	0.17651993
53	0x3dbadedb	0.091245376
54	0xbd082c77	-0.03324553
55	0xbd646979	-0.05576465
56	0xbed9f857	-0.4257228
57	0xbe310570	-0.1728723
58	0xbd7ae2bb	-0.061251383
59	0x3dbb1875	0.09135524
60	0x3e60b1b2	0.21942785
61	0xbe9bf653	-0.30461368
62	0xbe10544e	-0.1409466
63	0x3ce38eab	0.02777799
64	0x3e46c184	0.19409758
65	0x3e395ba6	0.18101367
66	0xbe4ca2b8	-0.19983947
67	0xbd95ce90	-0.07314789
68	0xbd19cae5	-0.03754701
69	0xb9de0472	-0.00042346452
70	0xbc49eaaf	-0.012324019
71	0xbe78fde5	-0.24315603
72	0x3e3bcc28	0.18339598
73	0xb9dc578f	-0.00042026906
74	0xbe873a8f	-0.26411864
75	0xbd93e9fc	-0.07222363
76	0xbd941f10	-0.07232487
77	0xbd49e73d	-0.04929279
78	0x3d9d8cf7	0.076929025
79	0x3c085322	0.008320602
80	0x3e684c50	0.22685361
81	0x3e818964	0.25300133
82	0x3e89eab7	0.26936886
83	0x3e0f7d27	0.14012586
84	0xbd58be53	-0.052915882
85	0x394e1584	0.00019653706
86	0xbeb3c0a3	-0.35107908
87	0xbea36820	-0.3191538
88	0xbe9721e5	-0.29518047
89	0x3bc23624	0.005926864
90	0x3dbf8ef3	0.09353437
91	0xbd80172e	-0.06254421
92	0x3e0d8c4c	0.1382305
93	0x3d7f6e8d	0.06236129
94	0x3dca0b65	0.098654546
95	0x3d74e391	0.059787337
96	0xbe8e4a3f	-0.2779102
97	0xbe1f5e4b	-0.15563314
98	0x3dc8f3e2	0.09812142
99	0xbd4b1980	-0.049584866
100	0x3be5ebcd	0.007016635
101	0xbd9c620c	-0.076358885
102	0x3dbd65b6	0.092479154
103	0xbcde2b87	-0.027120365
104	0x3dd615e7	0.10453396
105	0xbdce5ec6	-0.1007667
106	0x3e33b93b	0.17551129
107	0xbc976e4a	-0.018485207
108	0xbe0766fa	-0.13222876
109	0xbdd050b1	-0.10171641
110	0xbcd4d708	-0.025981441
111	0x3e7d28da	0.24722615
112	0xbd5879c3	-0.052850496
113	0xbdce487a	-0.100724176
114	0xbd0e141a	-0.03468714
115	0x3c8bb9c3	0.017056352
116	0x3d1be7f6	0.038063012
117	0xbe735836	-0.23764119
118	0xbe010802	-0.12600711
119	0xbe12b150	-0.14325452
120	0xbb4b53f8	-0.003102539
121	0x3e918923	0.2842494
122	0x3eb2d935	0.3493134
123	0x3e5ee9cc	0.21768874
124	0xbdfb9873	-0.12284937
125	0xbe10b28d	-0.14130612
126	0xbdb33cea	-0.08751853
127	0xbdb4b1e0	-0.088229895
128	0xbe077d48	-0.13231385
129	0x3ddf99ad	0.10917983
130	0xbe2c9ad6	-0.1685594
131	0xbd037a04	-0.032098785
132	0xbd9bcfb2	-0.07607974
133	0xbcdac4b1	-0.026705118
134	0xbce9202d	-0.028457725
135	0xbcaebdb2	-0.021330688
136	0xbda46f6f	-0.08029067
137	0xbd95c8b7	-0.07313674
138	0xbd37438f	-0.044742163
139	0x3d18be8c	0.037291095
140	0xbc3e9465	-0.01163206
141	0xbe0ae8bf	-0.13565348
142	0xbd94f0a0	-0.07272458
143	0xbdb1cab2	-0.08681239
144	0xbc560cb7	-0.013064555
145	0xbcf1899c	-0.029484563
146	0x3f1f492e	0.6222104
147	0x3f732571	0.94979006
148	0x3eae78cd	0.3407654
149	0x3dfb68e6	0.12275867
150	0xbd6b0039	-0.05737326
151	0xbd863c8a	-0.06554516
152	0x3e209f4d	0.15685768
153	0xbccb8f63	-0.024848646
154	0xbe0b4a51	-0.13602568
155	0x3e0c0571	0.1367395
156	0x3d94f35e	0.07272981
157	0x3f026f03	0.5095064
158	0x3ed6d8df	0.41962335
159	0x3e3f9492	0.18709019
160	0x3ca92799	0.020648764
161	0x3cd0867a	0.025454748
162	0xbe0ab8f1	-0.13547112
163	0x3d8d4b6a	0.0689915
164	0x3e27d1e1	0.16388656
165	0xbcf172d5	-0.029473701
166	0xbd205aec	-0.03914921
167	0x3dd14f68	0.10220224
168	0x3b90f5ae	0.0044238186
169	0x3e8202db	0.25392804
170	0x3e8315d9	0.25602606
171	0x3c20afff	0.009807586
172	0x3e02ffe9	0.12792934
173	0x3c48ce57	0.0122562265
174	0x3cfa0e0b	0.030524274
175	0x3cf8ca0c	0.030369781
176	0xbe5c8e7c	-0.21538728
177	0xbe0ba297	-0.13636242
178	0xbd85f997	-0.06541746
179	0x3d8a0c10	0.06740582
180	0x3e05fafe	0.13084027
181	0xbd23bb5f	-0.039973613
182	0xbdd82bff	-0.105552666
183	0xbbcb47eb	-0.0062036416
184	0x3dac73e7	0.08420544
185	0xbd5039d4	-0.0508364
186	0xbda3185c	-0.079636306
187	0x3db792c2	0.08963539
188	0x3e86b942	0.26313215
189	0x3ee1f7c8	0.44134355
190	0x3e0567f1	0.13027932
191	0xbde9f384	-0.114234
192	0x3dd5fae8	0.10448247
193	0x3c057798	0.008146189
194	0x3dbe552e	0.092935905
195	0xbdbdffe8	-0.09277326
196	0xbe226669	-0.15859379
197	0x3d3a15ce	0.04543095
198	0x3d815373	0.06314745
199	0x3eb4faf0	0.353477
200	0x3f0199a4	0.5062506
201	0x3d8d917e	0.06912516
202	0xbd8af04b	-0.067841135
203	0xbe000e45	-0.12505443
204	0xbdc7f8d2	-0.097642556
205	0x3e8d8a6d	0.27644673
206	0x3e5e60da	0.21716633
207	0xbd62a81c	-0.055336103
208	0xbe174e07	-0.14775859
209	0x3e6268e9	0.22110333
210	0x3dbe6a0a	0.09297569
211	0x3e4c7a71	0.19968583
212	0x3dc743be	0.09729718
213	0x3be8cb07	0.007104281
214	0xbdd1ea05	-0.10249714
215	0x3d6ca5e9	0.05777541
216	0xbd17d531	-0.03706855
217	0x3d924d2a	0.07143624
218	0xbe1323b1	-0.14369084
219	0x3df5bf97	0.119994335
220	0x3db67a03	0.08909991
221	0xbd238a62	-0.039926894
222	0xbd1eddcc	-0.03878574
223	0xbc9a9248	-0.01886858
224	0x3cb36eea	0.021903474
225	0x3dd8cd2b	0.10586008
226	0xbe50357f	-0.20332907
227	0xbbc8a425	-0.006123083
228	0xbb50ca61	-0.0031858908
229	0x3de9f95a	0.11424513
230	0x3e53ec59	0.20695628
231	0x3e80f005	0.2518312
232	0x3cde60ef	0.02714583
233	0x3e340b5c	0.17582458
234	0xbdaa14f5	-0.083047785
235	0x3d2be02e	0.04196184
236	0x3e92d4a3	0.28677854
237	0xbd951efc	-0.072813004
238	0x3da78ca4	0.08181122
239	0x3b93ade6	0.0045068143
240	0xbda73c6b	-0.08165821
241	0x3ddde22f	0.10834157
242	0x3d6d9ff8	0.058013886
243	0xbd39c32f	-0.045352157
244	0xbb809a1e	-0.003924622
245	0x3e4aac61	0.1979232
246	0xbded9c4c	-0.11602077
247	0xbd5cf68f	-0.053946074
248	0xbd3734d6	-0.044728123
249	0xbce854b6	-0.028360706
250	0xbd9fd385	-0.07804016
251	0xbd7f9fc2	-0.062408216
252	0xbde9fca2	-0.11425139
253	0xbd8d6806	-0.069046065
254	0x3ed7ae5f	0.42125222
255	0xbe8fa6af	-0.28056857

fc1.bias f4 [6]
0	0x3ddbcd49	0.107325144
1	0x3d3b1951	0.04567844
2	0x3cbf7398	0.02337055
3	0x3d2b752e	0.041859798
4	0xbdf5754a	-0.11985262
5	0xbd6db47f	-0.058033463

fc2.weight f4 [3, 6]
0	0x3e8ced49	0.27524784
1	0x3e0e182b	0.13876407
2	0x3e0d6cdf	0.13811062
3	0xbe06c25a	-0.13160077
4	0x3b32e913	0.0027299568
5	0x3e06cfc2	0.13165191
6	0xbec579f1	-0.38569596
7	0x3f0377a7	0.5135445
8	0x3ed680c3	0.41895112
9	0x3e83938d	0.2569851
10	0xbedd7b54	-0.43258154
11	0xbf1ffdf5	-0.6249688
12	0xbe9c00c0	-0.30469322
13	0x3eff74b5	0.49893728
14	0xbef7f23e	-0.48427004
15	0xbeba19d4	-0.3634783
16	0xbd506616	-0.050878607
17	0x3e2fa1db	0.17151587

fc2.bias f4 [3]
0	0xbef4d29a	-0.47816926
1	0xbe918a34	-0.28425753
2	0x3c589a29	0.013220348
